data.pth (torch, 13610 bytes, 6 tensors)

l1.weight f4 [8, 217]
000000 c2 a1 18 be 4d 7a 69 be 12 00 cf be a6 8c 84 3e
       -0.14905456 -0.2280056 -0.4042974 0.25888556
000010 e3 92 d3 3e 19 56 28 3f 65 5c 06 3e 91 87 f2 3d
       0.41323003 0.65756375 0.13121183 0.118422635
000020 3d 70 42 be cd 33 03 3f a2 63 9b 3e f2 cb 31 bf
       -0.18988128 0.51250917 0.3034945 -0.6945182
000030 36 8e 1b bf 19 da cf be b9 4c 2b 3e af 18 ce 3e
       -0.6076387 -0.40596083 0.16728486 0.40253207
000040 be 27 43 bd 35 72 04 3e 75 10 42 3e 42 93 ee 3d
       -0.047645323 0.12934192 0.1895159 0.11649181
000050 9b 73 1e 3f ee 3a b2 3e 7b 04 91 3d 39 f0 2f bf
       0.6189515 0.34810585 0.07080933 -0.68725926
000060 33 64 ec 3d 33 db 62 3e 9b c2 28 3e 57 22 05 3f
       0.11542549 0.2215393 0.16480486 0.52005523
000070 0f 50 0f bb 2f 53 32 bf fc 83 f7 bd c1 af ae 3e
       -0.0021867787 -0.6965818 -0.12085721 0.34118465
000080 c7 73 4b 3e 79 b6 13 3e f2 b8 11 3f fb 3e 2c 3f
       0.19868384 0.14425077 0.5692283 0.672836
000090 bb 63 58 3e b9 7e bd bd 4d f3 27 3f d2 35 48 3e
       0.21131794 -0.09252686 0.6560562 0.19551781
0000a0 93 e6 80 bf c0 63 64 3e 6c b4 4b 3e b1 8d 12 bf
       -1.0070366 0.22303677 0.19893044 -0.57247454
0000b0 2a 68 66 be 64 af 3d 3e f7 2f 0d 3f 4f 77 a8 3e
       -0.22500673 0.18523937 0.55151314 0.32903525
0000c0 e9 03 11 bf 4f 5e ea be 0b c7 08 bf 83 a0 c9 3e
       -0.5664659 -0.45775077 -0.53428715 0.39380273
0000d0 ff 9c 17 bf 82 e6 79 bd 4e ac cf 3e ee d2 a3 be
       -0.5922393 -0.061010845 0.40561146 -0.31996864
0000e0 92 a6 14 3f 9b ef 9e be fd 94 a8 be 25 ac 15 be
       0.58066666 -0.3104218 -0.3292617 -0.14616449
0000f0 66 58 5c 3f 82 5d 0c bd 54 a3 d9 3d 66 1c 84 3f
       0.86072385 -0.034268863 0.106268555 1.0321167
000100 5f 23 d9 3d 2d b4 1c bc fe 51 ba 3e 03 e6 a6 3f
       0.106024496 -0.009564442 0.3639068 1.3038944
000110 01 35 27 bf fa 4b 83 3e 89 13 99 3e 95 52 24 3f
       -0.6531525 0.25643903 0.29897717 0.6418851
000120 dd a7 43 3f 91 e3 e4 3e 50 9f c0 3d a4 4f ee 3e
       0.76428014 0.4470487 0.094053864 0.46545136
000130 b6 ce f0 be de 96 01 3f 6f 19 ac 3d e1 4b 32 bf
       -0.47032708 0.5062083 0.084032886 -0.6964703
000140 df ad 16 3e 28 51 b6 3e d5 f1 70 3e 19 4d fa bd
       0.14714764 0.35608792 0.23529752 -0.122217365
000150 bf 91 9d 3d 99 da 4e 3e 1a 1b 90 3e cd e7 0a bf
       0.076938145 0.20200576 0.28145677 -0.5425995
000160 34 86 01 3f 4b 59 ff be 18 22 03 bf bf 55 81 3e
       0.505954 -0.49872813 -0.512239 0.25260732
000170 10 85 00 bf 22 dc 03 be 90 45 08 bf 3a e9 45 3e
       -0.5020304 -0.12876943 -0.53231144 0.1932725
000180 c5 8d f5 be 9d 8e 15 bf 94 1a 37 3e 16 cd 1a 3f
       -0.47959724 -0.58420736 0.17881233 0.60469186
000190 75 ec 3d 3f 33 0c 04 bf 37 7d 49 3e 84 e1 bd be
       0.7418893 -0.51581115 0.19676672 -0.37086117
0001a0 86 49 32 bf 86 bc d6 3e 9d 9e 25 3f 42 88 44 bd
       -0.6964344 0.41940707 0.6469515 -0.047981508
0001b0 73 df 8b 3e 32 06 7a ba 8a 59 0d bf ad af f2 3e
       0.27318916 -0.00095376663 -0.5521475 0.47399655
0001c0 22 e5 b7 3e f0 f2 8f 3d 31 1a 80 be 5c 17 3f 3e
       0.35917002 0.070287585 -0.25019982 0.18661255
0001d0 1f d5 84 3e a2 fa 4a bf dd 87 0b bf 48 b6 cb 3e
       0.25943848 -0.79288685 -0.54504186 0.39787507
0001e0 9f ac 99 be 61 5a 21 3f f2 3b dc 3e 01 f8 e3 be
       -0.30014512 0.6302853 0.43014485 -0.4452515
0001f0 c6 20 c2 bd 0c 3d e6 3e 78 24 56 3e f0 a8 e8 3e
       -0.09478907 0.4496845 0.20912349 0.4544139
000200 bc f7 1b 3e 9d 43 44 bf 38 94 49 bd 74 c5 ae 3e
       0.15231222 -0.7666567 -0.049213618 0.3413502
000210 50 f3 86 bb 39 8c 85 3f 6b f9 4b be 94 34 26 3e
       -0.0041183606 1.0433418 -0.19919364 0.16230994
000220 df c1 22 3f 18 47 65 3e 42 76 36 3f 3b 1e cd 3e
       0.63577074 0.22390401 0.712742 0.40062127
000230 14 bf 51 3e cf 03 08 3c 85 a3 9d be 27 b6 e5 be
       0.20483047 0.008301689 -0.30788818 -0.44865534
000240 07 ed 00 3f 99 bc 38 3f 58 51 2f 3f 79 86 97 3f
       0.50361675 0.7216278 0.68483496 1.1837913
000250 4d f2 cf 3e 6a cd 49 3e 10 53 57 be 24 80 33 3e
       0.40614548 0.19707265 -0.2102778 0.1752935
000260 84 dc 13 3f 4e b9 c9 3e fe 2e 69 3e a4 5e 9e 3e
       0.57758355 0.3939919 0.22771832 0.3093158
000270 bb 1b 95 bf 95 44 b8 bc 76 20 40 be e3 55 91 bd
       -1.1649088 -0.02249364 -0.18762383 -0.0709646
000280 33 ef 8d be 4a 80 e8 3d 2a 42 a8 3e 91 46 60 3e
       -0.27721557 0.11352594 0.3286298 0.21901919
000290 96 43 f4 be a0 9e 1d 3f d4 a7 a1 3e 06 c9 0e bf
       -0.47707814 0.6157017 0.31573355 -0.5577549
0002a0 a2 18 9c be e4 b3 f2 be 47 d5 3f bf d5 f8 4c 3f
       -0.30487543 -0.4740287 -0.7493481 0.8006719
0002b0 8f e6 25 3e 69 50 67 be 21 9e 7a 3e e3 f6 2e bd
       0.16201232 -0.22589268 0.24474384 -0.04271592
0002c0 92 da 89 3e 40 62 8c 3d 72 d3 d1 3e c6 a6 21 3f
       0.26924568 0.06854677 0.40981632 0.631451
0002d0 1c b4 b9 3d 6c 9f ae be 79 c8 c1 3f ad 7f eb be
       0.09067556 -0.34106004 1.5139304 -0.45995846
0002e0 ac ee 6c 3e 0a 12 06 3e f7 d0 4c 3f f2 2b 2a 3e
       0.23137921 0.13092819 0.80006355 0.16618326
0002f0 e0 9b b0 3e 82 8f a1 3e f8 40 c8 be f9 6f a6 3e
       0.34493923 0.315548 -0.39112067 0.32507303
000300 47 2b f4 3e 8f 90 1c be d4 b8 95 3e a1 6b aa bd
       0.47689268 -0.1528952 0.29242575 -0.0832131
000310 a9 e5 79 bd bf 80 82 bc e8 02 64 bf 44 ec c4 bd
       -0.061010037 -0.015930532 -0.89066935 -0.096153766
000320 bb 6a 47 3f 7e 19 c4 3e 35 fc 63 3d 04 1a 2d bf
       0.7789723 0.383007 0.055660445 -0.6761782
000330 a0 49 da 3e f0 f0 78 bc e2 0f a5 3e ea ab ec bc
       0.42634296 -0.015194163 0.3223868 -0.028890569
000340 a4 7d 2f 3f 46 48 03 bf e2 a7 4b 3e 03 17 12 3f
       0.6855109 -0.51282156 0.19888261 0.57066363
000350 8e 0e 02 3f 71 c0 29 3f d9 de 29 3e 98 d1 d8 3e
       0.5080346 0.6630927 0.16588916 0.42347407
000360 52 d2 19 bf 20 f8 57 be 04 3c 72 3f c2 99 9f 3d
       -0.6008655 -0.21090746 0.94622827 0.07792999
000370 4d d6 6b bd 8b aa b9 3e c0 ad ed be 3b 47 b1 3e
       -0.05757742 0.36262926 -0.46421623 0.34624657
000380 ec 6e d6 3e e9 e9 d3 3d 41 50 d6 3e 88 22 17 3e
       0.41881502 0.10347349 0.41858104 0.14759266
000390 10 8a 3d 3f 0c ba ba be 50 a0 02 3f 3f 5d 39 3e
       0.7403879 -0.36470068 0.5102587 0.18101977
0003a0 f7 07 bf 3e d8 40 94 3e 4e 1b fb 3d 93 94 f1 3d
       0.37310764 0.28955722 0.12261067 0.117959164
0003b0 d2 28 47 3e 9b fe bd 3e 95 a8 bf 3e 7e 77 c3 3c
       0.19449165 0.3710831 0.37433305 0.02386069
0003c0 a1 a2 1a 3f 16 78 04 3e fb 23 19 3d 06 15 e8 3d
       0.604044 0.12936434 0.03738783 0.11332135
0003d0 66 8a 34 bf 1f f2 07 3f bd a0 f1 be 7d 25 a6 3d
       -0.7052368 0.5310382 -0.47192946 0.08112619
0003e0 f4 d8 ab 3e 9b 59 8f 3e 46 b8 86 3d 30 9c 97 be
       0.3356396 0.2799805 0.06578116 -0.2961135
0003f0 6b 58 0c bf 80 2c 4d bf 3f 54 65 be fd ed 20 bf
       -0.54822415 -0.80146027 -0.22395419 -0.6286314

l1.bias f4 [8]
000000 10 4f 32 3f ed f8 59 3f 70 4b 43 3f da 5d c0 3f
       0.6965189 0.85145456 0.76286983 1.5028641
000010 4e 3d 99 3f bb 3d a7 3f 44 5f 79 3f 7e 11 4b 3f
       1.1971834 1.3065714 0.9741099 0.79323566

l2.weight f4 [8, 8]
000000 e7 7b eb 3f 3f 3f e3 3f 40 ea 96 3f bc 2a 48 bf
       1.8397187 1.7753676 1.1790237 -0.7819021
000010 9e 2a e6 be 11 6b f5 3f 35 c9 75 3f 96 9b ed bf
       -0.4495439 1.9173299 0.9601014 -1.8563106
000020 af 39 53 be 44 47 14 3f 44 08 4f bf 5e 96 bc bd
       -0.20627473 0.5792124 -0.8087199 -0.09208368
000030 c2 a2 cd bf 08 40 b5 3f 74 a1 ab 3f d4 98 d5 3f
       -1.6065295 1.4160166 1.3408647 1.6687264
000040 64 7d 19 3f b6 ba 90 3f 13 ee 94 3f 3d d5 50 bf
       0.59956956 1.130698 1.1635154 -0.81575376
000050 58 99 92 bf 6c 0d c8 be a2 9f 27 40 f9 fe b5 3f
       -1.1453047 -0.3907274 2.6191182 1.4218436
000060 a1 42 06 be b0 23 5d 3e 00 21 d3 be d6 44 01 40
       -0.13111354 0.21595645 -0.41236115 2.0198264
000070 c0 64 3c bf a7 ac c9 bf 7c 17 11 40 52 9b 5f 3f
       -0.7359123 -1.5755814 2.2670584 0.87346375
000080 cf e7 b6 3e 43 d3 7d bf b8 a0 b2 bf 79 69 0a 40
       0.3572373 -0.99150485 -1.3955297 2.1626875
000090 5f dd 82 bf 26 82 69 3f 92 be c3 3f ee 54 60 bf
       -1.0223807 0.91214216 1.5292532 -0.8762959
0000a0 59 ba fc bf 11 13 03 40 9d e4 9a 3f cf 61 02 3f
       -1.9744369 2.0480387 1.2101017 0.50930494
0000b0 77 25 2d 3e 4e eb 05 40 88 38 94 bf 5f af ec 3f
       0.16908823 2.0924869 -1.1579752 1.8491019
0000c0 48 2f 05 40 71 87 dd 3e d2 d5 c0 3f 8c 45 9b bf
       2.0810108 0.43267396 1.5065253 -1.2130599
0000d0 fb e2 2c 40 b2 17 d4 3e d8 52 5d 3f 80 da 54 3f
       2.7013538 0.41424328 0.86454535 0.83145905
0000e0 f0 70 2b 3f 1c b8 6b bf 58 41 82 bf e2 c8 87 3f
       0.66969204 -0.92077804 -1.0176191 1.060818
0000f0 56 89 20 40 5c a5 97 3f a2 32 00 3e 11 19 94 3e
       2.5083823 1.1847339 0.12519315 0.28925374

l2.bias f4 [8]
000000 f0 ce bf 3e 75 b6 82 bf 1a b1 70 3e 24 e4 a1 3f
       0.37462568 -1.0211931 0.23505059 1.2647748
000010 b0 5d 65 3f 24 f5 88 3f 03 d5 c9 3e 70 3f 7e 3f
       0.8959608 1.0699811 0.39420328 0.9931555

l3.weight f4 [20, 8]
000000 bc cd dc bf 93 71 a4 3e 69 0b 41 3e 45 de ae bd
       -1.7250285 0.321179 0.18852009 -0.08538488
000010 b5 23 27 c0 45 28 9a 3e 7f 3c 25 be 23 36 50 3e
       -2.6115544 0.30108848 -0.16136359 0.20333152
000020 84 96 e6 3e 39 1e 2d 3d 43 4b f4 be e3 30 93 be
       0.4503671 0.04226515 -0.4771367 -0.28748235
000030 5f 9e 1b 3f 00 99 eb bf 61 c2 29 bf 4a 2a 53 bf
       0.6078853 -1.8406067 -0.66312224 -0.82486403
000040 94 6c 5a bf 56 0c 45 bf 6e d2 e0 bf f2 14 76 bf
       -0.8532193 -0.7697195 -1.7564218 -0.9612571
000050 24 b8 53 be 41 cf fa 3e 71 12 97 bf e2 f1 b1 3e
       -0.20675713 0.48986247 -1.1802503 0.34754854
000060 a3 59 47 3f 10 35 e9 3e 22 d6 ae 3e ac b4 c6 be
       0.7787115 0.45548296 0.34147745 -0.38809717
000070 5d 7b 8a bf 4d d7 62 bf 1c 19 82 be 27 c6 f0 bf
       -1.0818897 -0.8860977 -0.25409782 -1.8810471
000080 34 ac e0 3d 6f df 0d c0 b8 be 3d 3e 12 86 0e 3f
       0.10970345 -2.2167623 0.18529785 0.55673325
000090 9a 92 f2 be e7 fc 62 3e c2 03 ec be b3 75 53 bf
       -0.47377473 0.22166787 -0.46096617 -0.8260147
0000a0 60 7e 1c c0 28 f3 89 bf cf a2 82 bf 9f 6c e3 bf
       -2.4452133 -1.077733 -1.0205935 -1.7767524
0000b0 0a af 56 c0 ec e8 f5 3c f6 17 3a 3f 53 1d 5c 3f
       -3.3544335 0.030018292 0.7269281 0.85982245
0000c0 d3 f8 32 bf a9 c0 3f c0 f7 54 0a c0 e1 ae 57 3f
       -0.69910926 -2.996134 -2.1614358 0.8425122
0000d0 26 df 31 3f 75 00 27 3d a9 f6 20 c0 e9 8b c2 3e
       0.6948112 0.04077192 -2.515055 0.37997368
0000e0 5e 9c 75 3c ab 95 22 c0 cb d3 1b bf e0 f7 09 c0
       0.014990894 -2.540385 -0.60870045 -2.155754
0000f0 fe 89 23 c0 46 6b 98 3f cd cf b2 3e d3 db 59 be
       -2.5552974 1.1907737 0.34924164 -0.21275263
000100 39 33 f3 3d 33 82 ca 3e f9 b8 49 3f 0f 0d 9c bf
       0.11875004 0.3955246 0.7879787 -1.2191485
000110 4f 39 3e c0 79 ab 22 3f d1 5e 48 bd 07 79 2f c0
       -2.9722478 0.63542897 -0.04891855 -2.741762
000120 d7 27 72 bf 2c 02 8a 3e c1 ed 33 bc d7 e3 58 3f
       -0.9459204 0.26954782 -0.010981978 0.84722656
000130 a3 ad 7a 3f 38 06 fb bf c1 e3 0b c0 b8 52 33 bf
       0.979212 -1.9611273 -2.185776 -0.70048094
000140 7c 75 d8 3e 86 7f 25 c0 f4 ce a7 bf fe 2d 14 c0
       0.42277133 -2.5859084 -1.3110032 -2.3153071
000150 70 fb 10 c0 74 1b c6 bf bf 42 32 3f 62 37 28 3f
       -2.2653465 -1.5477128 0.69633096 0.6570951
000160 c3 38 9e bf 72 77 3a c0 bf c2 f5 bf 87 d0 30 3d
       -1.2361072 -2.9135404 -1.9200057 0.043167617
000170 07 26 0d bf 4d 1a 01 be 0f 39 cc 3e b1 af b6 3e
       -0.5513615 -0.12607689 0.39887282 0.35680917
000180 d7 13 44 3f d1 82 be bf 6a 05 00 3f 99 75 70 bf
       0.76592773 -1.4883672 0.5000826 -0.9392944
000190 ce e4 30 c0 c4 e5 34 bf a3 21 58 3f f1 71 a7 bf
       -2.7639651 -0.70663095 0.84426326 -1.3081647
0001a0 25 f5 49 3d e2 1e b6 bf 1b 5c 1b c0 f5 39 fa bd
       0.049306054 -1.4228175 -2.4274967 -0.12218086
0001b0 43 b3 58 3e a8 8f 38 c0 c4 b6 28 be 0b 17 3b 3f
       0.21162133 -2.883768 -0.1647597 0.73082036
0001c0 7c 32 da bf cc 4e fe 3e 71 d4 58 bf 0a f2 5c 3e
       -1.7046657 0.49669492 -0.8469916 0.21576706
0001d0 f8 15 50 be 4e cc 08 3f 2c c3 01 c0 b6 4a 36 bf
       -0.2032088 0.53436744 -2.0275373 -0.7120775
0001e0 64 79 ae 3e 74 fe 6e bf e3 99 d7 be 5b 6b 4b bf
       0.3407699 -0.93357015 -0.42109594 -0.79460686
0001f0 9b ac df be a1 63 a6 bf 27 bc 91 3e 9d b2 1e bd
       -0.43686375 -1.2999154 0.2846386 -0.038744558
000200 27 44 4a 3f d3 77 3a 3e 24 93 83 bf 3d 5e bc bf
       0.7901024 0.18209772 -1.0279279 -1.4716259
000210 22 4f 8a bf 77 f3 46 3f ec bc 63 bf 94 e1 9b bf
       -1.08054 0.7771525 -0.88960147 -1.2178216
000220 31 98 41 bf 49 fa 13 3e c5 55 e3 3e 7a c2 ed 3e
       -0.7562285 0.14450945 0.44401374 0.46437436
000230 22 2c 03 bf f0 c6 02 c0 37 50 74 3d c6 27 61 bf
       -0.51239216 -2.0433922 0.05964681 -0.87951314
000240 60 69 f3 bf d1 b4 2e c0 bd 6d c7 bc 2c b8 83 3f
       -1.9016533 -2.7297862 -0.02434432 1.029058
000250 a3 3c a9 3e 00 d5 2f c0 41 af 9d be 73 3c 89 3e
       0.33054075 -2.7473755 -0.3079777 0.26803932
000260 5b 3b 47 bf 06 85 f5 3e 62 69 ec 3e 26 10 fd 3e
       -0.77824944 0.4795305 0.4617415 0.49426383
000270 9a d0 2d bf 4c 68 40 be 77 34 6e bf 06 63 a7 bf
       -0.67896426 -0.18789786 -0.93048805 -1.3077095

l3.bias f4 [20]
000000 05 b5 28 3e 7c 8e b1 bc 69 8a ba bd ed 6c c7 be
       0.16475303 -0.021674387 -0.09108431 -0.3895029
000010 2d a1 49 3e 7d bc e9 bd d9 3c e8 3e e6 a6 91 bd
       0.1969039 -0.114129044 0.45358923 -0.071119115
000020 ee d4 e2 be 04 cc e8 bd 54 4b 0f be 2b d3 db 3e
       -0.44303077 -0.11367038 -0.13993579 0.42934546
000030 72 9e 88 bd 43 6a 1d be 6b dc b9 bd ac 19 f1 be
       -0.06670846 -0.15372567 -0.090752445 -0.470899
000040 b7 15 6b bd 95 d7 6e be 3f ea 04 3f ed 0a 22 bf
       -0.057393756 -0.23324426 0.5191993 -0.6329792
